MLP_10.pth (torch, 33736 bytes, 4 tensors)

fc1.weight f4 [10, 784]
0.002457162 0.00896476 -0.034175824 0.0044373097 0.0011281393 -0.0013256797 -0.03602459 0.008326151
-0.02933732 -0.045500796 -0.048646074 -0.0030840808 -0.037944667 -0.032152634 -0.011658021 0.0075738165
-0.0024230264 -0.027690819 -0.023927568 -0.029449822 -0.00783207 -0.05661949 -0.020079916 -0.060395513
-0.039669413 -0.009302931 -0.056659598 -0.05059648 -0.05373313 -0.05552314 -0.05294252 -0.038121182
-0.052082103 -0.054575216 -0.012036409 -0.030789226 -0.052511096 -0.027030611 -0.04044797 -0.05571968
-0.09041887 -0.039908506 0.0032231237 -0.029466718 0.016087433 -0.02123826 -0.016833797 -0.043809235
-0.041846883 -0.06453443 -0.0060369056 -0.037911274 -0.03493827 -0.042976823 -0.025004609 -0.020210596
-0.04418658 -0.036189 -0.039355643 -0.017660685 -0.041925073 -0.004954121 -0.022502964 -0.088490285
-0.0691122 -0.07791412 -0.109789625 -0.10738687 -0.07629868 -0.11121998 -0.024704415 -0.07080783
-0.049660128 -0.07202436 -0.08098112 -0.121929914 -0.055599883 -0.07508555 -0.104767784 -0.029996363
-0.056057088 -0.018274447 -0.040443424 -8.552939e-05 0.009084777 0.0065642674 -0.017136997 0.0011503085
-0.004360381 -0.0022408077 -0.06475951 -0.016083507 -0.035332464 0.039716754 0.080077626 0.01702526
0.051344626 0.03387904 0.030838493 -0.013074554 -0.05316752 -0.048303876 -0.08664008 -0.1267495
-0.052369468 -0.115504876 -0.13338214 -0.08219475 -0.02383455 -0.03136849 -0.012912308 -0.02979226
-0.010803265 -0.038277175 -0.04327183 0.00673503 -0.005057865 0.036671486 0.08424935 0.13365273
0.07967603 0.22203928 0.16546983 0.18465102 0.17737688 0.12069339 0.066487074 0.051328674
-0.015167644 -0.013418023 0.05719594 0.020656181 -0.061742667 -0.03347886 -0.08614689 -0.12918438
0.012594972 -0.04623152 -0.023945518 -0.05941285 -0.006014163 -0.021811267 -0.0047545456 0.011935295
0.050671816 0.01919563 0.050026257 0.038151383 0.032285552 0.07113019 0.08064663 0.16689546
0.101627395 0.09530367 0.0544234 0.023871489 0.010665859 0.026877979 -0.00016417264 0.003210489
-0.026139043 -0.056595493 -0.06462184 -0.13183738 -0.08305108 -0.04375374 -0.057668537 -0.03165869
-0.038691524 -0.021345062 -0.016248517 -0.03363562 0.022645475 -0.020270115 0.016292565 -0.05528492
0.008157508 0.014400398 0.051560376 0.030952085 0.05269146 0.14619245 0.103519835 0.12050084
0.1663326 0.070043094 0.1132263 0.0552009 0.038235743 -0.06902281 -0.1049843 -0.14216365
-0.12102068 -0.06584833 -0.01409866 -0.008552701 -0.059518848 0.008147344 -0.050503533 -0.09176951
-0.011220755 -0.01732793 -0.021199243 -0.14166519 -0.05103619 -0.051911287 -0.06056704 0.0026400501
0.047438562 0.15742405 0.19766177 0.18706532 0.16722912 0.09868717 0.011700831 0.02237774
-0.009206961 -0.025206309 -0.034488194 -0.12819466 -0.1703267 -0.047840357 -0.0153365 -0.006559274
-0.0038499765 -0.0214807 -0.04635544 -0.09252497 -0.017073572 -0.045982264 -0.04775766 -0.13351412
-0.04453828 -0.039365456 -0.04165037 -0.078800574 -0.07213828 0.039073784 0.11688191 0.1303828
0.067530416 0.0001329015 -0.031111678 0.01732947 0.007500044 0.011508463 -0.011735348 -0.06326755
-0.16317753 -0.02974923 -0.043031268 -0.054416265 -0.037448574 -0.0200353 -0.09115707 -0.08021044
00000000: 5608 213b eee0 123c f3fb 0bbd da66 913b
00000010: 13de 933a 6ec2 adba 858e 13bd 696a 083c
00000020: d254 f0bc 0b5f 3abd 1b41 47bd 4a1e 4abb
00000030: de6b 1bbd 7bb2 03bd 4901 3fbc c72d f83b
00000040: a3cb 1ebb dbd7 e2bc bf03 c4bc c140 f1bc
00000050: 1552 00bc d7e9 67bd a37e a4bc 4961 77bd
00000060: 657c 22bd 526b 18bc e513 68bd 413e 4fbd
00000070: 4517 5cbd 3b6c 63bd 41da 58bd f524 1cbd
00000080: 0b54 55bd 438a 5fbd 5c34 45bc b039 fcbc
00000090: e015 57bd 4d6f ddbc c5ac 25bd 523a 64bd
000000a0: 872d b9bd 1a77 23bd 0b3b 533b 3064 f1bc
000000b0: cbc9 833c dcfb adbc 08e7 89bc 5071 33bd
000000c0: a367 2bbd a12a 84bd 3cd1 c5bb da48 1bbd
000000d0: 6e1b 0fbd 7708 30bd 77d6 ccbc b190 a5bc
000000e0: fdfc 34bd eb3a 14bd 6233 21bd 24ad 90bc
000000f0: a0b9 2bbd 2e56 a2bb 2358 b8bc 653a b5bd
00000100: b28a 8dbd 7091 9fbd 62d9 e0bd a6ed dbbd
00000110: 7b42 9cbd 4dc7 e3bd ea60 cabc b203 91bd
00000120: 6b68 4bbd 8281 93bd 6ed9 a5bd 64b6 f9bd
00000130: b4bc 63bd 74c6 99bd 7e90 d6bd efba f5bc
00000140: 1e9c 65bd 4bb4 95bc 01a8 25bd 3e5e b3b8
00000150: 51d8 143c 1119 d73b e362 8cbc f3c5 963a
00000160: 87e1 8ebb 84da 12bb a2a0 84bd 8fc1 83bc
00000170: c6b8 10bd 09ae 223d bdff a33d 8f78 8b3c
00000180: be4e 523d c0c4 0a3d 02a1 fc3c a736 56bc
00000190: 2fc6 59bd 49da 45bd 5b70 b1bd 9fca 01be
000001a0: 5e81 56bd d28d ecbd 5495 08be b955 a8bd
000001b0: ad40 c3bc 3f7c 00bd 258e 53bc e60e f4bc
000001c0: 2d00 31bc 87c8 1cbd cd3d 31bd 87b1 dc3b
000001d0: 72bc a5bb d734 163d ec8a ac3d 43dc 083e
000001e0: 302d a33d 445e 633e ec70 293e 2815 3d3e
000001f0: 49a2 353e 192e f73d 602a 883d 043e 523d
00000200: b681 78bc 44d7 5bbc 4a46 6a3d 2737 a93c
00000210: e1e5 7cbd 2121 09bd c86d b0bd e948 04be
00000220: 245b 4e3c 435d 3dbd 6429 c4bc e35a 73bd
00000230: 7512 c5bb 8bad b2bc 05cc 9bbb 418c 433c
00000240: 408d 4f3d 2740 9d3c 55e8 4c3d a044 1c3d
00000250: db3d 043d b4ac 913d 0f2a a53d a5e6 2a3e
00000260: 0622 d03d 922e c33d 12eb 5e3d 248e c33c
00000270: dbbf 2e3c 352f dc3c c225 2cb9 1167 523b
00000280: 8c21 d6bc add0 67bd 7558 84bd 6100 07be
00000290: af16 aabd 1f37 33bd d835 6cbd 8bac 01bd
000002a0: 017b 1ebd d7db aebc 9c1b 85bc 81c5 09bd
000002b0: 0183 b93c 830d a6bc fc77 853c 7172 62bd
000002c0: 12a7 053c a6ef 6b3c f930 533d 3a8f fd3c
000002d0: 00d3 573d 79b3 153e 3502 d43d 25c9 f63d
000002e0: 1853 2a3e c172 8f3d 31e3 e73d 571a 623d
000002f0: 159d 1c3d d55b 8dbd 0202 d7bd 5993 11be
00000300: b1d9 f7bd 7ddb 86bd 11fe 66bc a120 0cbc
00000310: 09ca 73bd 707c 053c cbdc 4ebd a7f1 bbbd
00000320: 42d7 37bc 4ef3 8dbc 09aa adbc ae10 11be
00000330: 530b 51bd eea0 54bd 2515 78bd b104 2d3b
00000340: f04e 423d c533 213e d967 4a3e 0d8e 3f3e
00000350: 1c3e 2b3e 801c ca3d d8b4 3f3c 8651 b73c
00000360: cbd8 16bc 767d cebc 7e43 0dbd 7645 03be
00000370: 1f6a 2ebe 40f4 43bd f145 7bbc 2eef d6bb
00000380: e34f 7cbb 4bf8 afbc 34df 3dbd bb7d bdbd
00000390: e0dd 8bbc e657 3cbd 899d 43bd edb7 08be
000003a0: c66d 36bd ac3d 21bd 9499 2abd 3262 a1bd
000003b0: 3cbd 93bd d50b 203d c85f ef3d 1283 053e
000003c0: 634d 8a3d 7a5b 0b39 ebdd febc 88f6 8d3c
000003d0: eec2 f53b fe8d 3c3c 9e45 40bc 6b92 81bd
000003e0: 0318 27be a8b4 f3bc 8e41 30bd 97e3 5ebd
000003f0: ad63 19bd 1221 a4bc 8fb0 babd 5f45 a4bd

fc1.bias f4 [10]
0.01666586 0.02870798 0.01735046 0.005097436 0.054868173 -0.05648333 0.04461222 0.035508875
-0.016659932 0.060801335
00000000: d786 883c ff2c eb3c 8d22 8e3c 6408 a73b
00000010: 73bd 603d 105b 67bd 4ebb 363d c171 113d
00000020: 697a 88bc d20a 793d

fc2.weight f4 [10, 10]
0.02764849 0.22620262 0.31535453 0.053170342 -0.1356001 -0.5509712 0.2932395 -0.34477162
-0.25195205 -0.5021699 -0.3992595 -0.50536233 0.03320975 -0.06459887 -0.15793678 0.5505237
-0.115767695 -0.10918885 0.22510466 0.18780859 0.2332903 0.09865321 0.06339865 0.23975587
0.02773885 0.20578991 -0.09690068 0.517684 0.22322051 -0.53954476 0.29633874 0.10366088
-0.3063082 -0.12714513 -0.0383409 -0.26311684 0.13418417 0.30134302 0.39858496 0.10433069
0.021902835 0.053498138 -0.1330897 0.5007042 -0.05258022 -0.070711374 -0.4206976 -0.72319627
-0.3018503 0.23553455 0.11133221 0.5014828 -0.11760195 -0.17864634 0.08340243 -0.45850855
-0.012658019 0.15620692 -0.3823142 0.13511968 -0.5160691 -0.28619936 0.3982567 0.13878955
0.28429028 -0.41165048 -0.38188818 0.05587838 -0.19039729 0.08530622 -0.49993008 -0.11761653
-0.48731792 0.40802342 -0.5088056 -0.14063135 0.35491776 0.30256546 0.12297038 0.18993805
-0.036576178 -0.12100518 -0.3776757 0.1236836 0.47952244 -0.0056074555 0.10138372 -0.27206075
-0.16635267 -0.21972442 0.3353435 -0.42512843 -0.26485232 0.39076543 -0.124068625 0.09916591
0.19549614 -0.651883 -0.7366843 0.10820249
00000000: 167f e23c a9a1 673e 2676 a13e 25c9 593d
00000010: c1da 0abe 730c 0dbf 7d23 963e e885 b0be
00000020: dcff 80be 358e 00bf be6b ccbe 6d5f 01bf
00000030: f206 083d 6a4c 84bd 2eba 21be 1fef 0c3f
00000040: 9d17 edbd 679e dfbd d681 663e e550 403e
00000050: a7e3 6e3e b20a ca3d 27d7 813d 9082 753e
00000060: 963c e33c 97ba 523e dd73 c6bd f086 043f
00000070: eb93 643e 9b1f 0abf b6b9 973e 284c d43d
00000080: 6ed4 9cbe 5532 02be 590b 1dbd 40b7 86be
00000090: 9367 093e a249 9a3e 5413 cc3e 54ab d53d
000000a0: 936d b33c dd20 5b3d ab48 08be 272e 003f
000000b0: 5b5e 57bd 20d1 90bd ad65 d7be 6423 39bf
000000c0: 1f8c 9abe f82f 713e 2402 e43d 2d61 003f
000000d0: 4bd9 f0bd 11ef 36be e5ce aa3d a2c1 eabe
000000e0: 9463 4fbc b5f4 1f3e b0be c3be d05c 0a3e
000000f0: 1b1d 04bf b988 92be 4de8 cb3e d91e 0e3e
00000100: 7f8e 913e dac3 d2be d986 c3be bae0 643d
00000110: 82f7 42be 07b5 ae3d d6f6 ffbe efe0 f0bd
00000120: bc81 f9be 72e8 d03e 1541 02bf aa01 10be
00000130: c8b7 b53e dce9 9a3e e5d7 fb3d 1f7f 423e
00000140: e7d0 15bd 90d1 f7bd b65e c1be d44d fd3d
00000150: f783 f53e bfbe b7bb 45a2 cf3d 8c4b 8bbe
00000160: 5b58 2abe 70ff 60be 25b2 ab3e 6faa d9be
00000170: b99a 87be 6812 c83e b117 febd 7f17 cb3d
00000180: 2430 483e cee1 26bf 5897 3cbf 4499 dd3d

fc2.bias f4 [10]
-0.26809606 0.17224514 -0.31346092 -0.13903044 -0.25584438 0.37862915 0.22189862 -0.3358263
0.27987176 -0.15733583
00000000: e343 89be 0861 303e f37d a0be ff5d 0ebe
00000010: 09fe 82be aedb c13e 6439 633e 6df1 abbe
00000020: 5a4b 8f3e a51c 21be
