weights/MLP_100.pth (torch, 319952 bytes, 4 tensors)

fc1.weight f4 [100, 784]
0	0x3d10dc17	0.035366144
1	0x3d2b83e0	0.041873813
2	0xbaa60fe8	-0.0012669535
3	0x3d18f876	0.037346326
4	0x3d0b6a75	0.034037072
5	0x3d015d6e	0.031583242
6	0xbb4c30c7	-0.0031157003
7	0x3d28e642	0.041235216
8	0x3b6a1123	0.003571578
9	0xbc4e4e6b	-0.0125919385
10	0xbc80eb65	-0.015737245
11	0x3cf45330	0.029824823
12	0xbaf303ab	-0.0018540522
13	0x3bfb8ee2	0.007676945
14	0x3cae1660	0.021250904
15	0x3d25d162	0.040482886
16	0x3cf9bd84	0.030485876
17	0x3baafc43	0.00521806
18	0x3c13266d	0.008981329
19	0x3b62b19d	0.003459073
20	0x3ccd6de2	0.02507681
21	0xbcc23cd6	-0.02371065
22	0x3c5230c2	0.012829008
23	0xbce12ba0	-0.027486622
24	0xbbdd86e1	-0.0067604636
25	0x3cc16150	0.023605973
26	0xbcc290f4	-0.02375076
27	0xbc90e5b9	-0.017687665
28	0xbcaa97d0	-0.020824343
29	0xbcb941a4	-0.022614308
30	0xbca41dc0	-0.020033717
31	0xbbaacb6a	-0.005212237
32	0xbc9d0a46	-0.019169938
33	0xbcb0eb02	-0.021596435
34	0x3d0d0717	0.03443059
35	0x3d088142	0.033326395
36	0x3bfaea08	0.007657293
37	0x3c90859a	0.017641831
38	0x3b2655b1	0.0025380666
39	0xbb525a4f	-0.0032097285
40	0xbc727a98	-0.014799736
41	0x3c8ea502	0.017412666
42	0x3ce2a001	0.027664186
43	0xbb025c6f	-0.001989152
44	0x3c97a42c	0.0185109
45	0x3b6007ad	0.0034184263
46	0x3cc83b14	0.024442233
47	0x3b6a73f6	0.0035774685
48	0x3b89d617	0.0042064297
49	0xbcf6eaee	-0.03014132
50	0x3cd1231a	0.025529433
51	0xbba4bd2d	-0.0050274343
52	0xbb04ff98	-0.0020293947
53	0xbc24f3d7	-0.010067902
54	0x3c018107	0.007904298
55	0x3c500c9f	0.012698322
56	0xbc38c5fd	-0.011277673
57	0xbb56f707	-0.0032801048
58	0xbbd2461b	-0.0064170486
59	0x3c7b5a85	0.015341406
60	0xbc0e3440	-0.00867945
61	0x3ce98138	0.028504
62	0x3cce91c1	0.025215985
63	0xbc53d164	-0.012928341
64	0x3caf1d67	0.021376325
65	0xbc4bd693	-0.012441295
66	0xbc787a0e	-0.015165819
67	0xbc6a92bd	-0.014317212
68	0x3d2d9e7f	0.04238748
69	0xbcad79a9	-0.021176176
70	0x3ca405e0	0.020022333
71	0xbcd2260b	-0.025652906
72	0x3cd46217	0.02592568
73	0x3c854b8d	0.016271377
74	0x3d14d1dd	0.036332954
75	0xbd8cbb3b	-0.06871649
76	0x3cae0be0	0.021245897
77	0x3c8f2556	0.017473858
78	0xbd3766ad	-0.044775654
79	0x3c799605	0.015233521
80	0xbc98456a	-0.018587787
81	0x3c84fe6f	0.016234605
82	0xbbf6e3c6	-0.007534477
83	0x3d0671d8	0.032823414
84	0x3d2c01ba	0.041993834
85	0x3d21aecc	0.03947334
86	0x3c80b156	0.01570956
87	0x3d0ebe39	0.03484938
88	0x3cca8a4d	0.02472415
89	0x3c78fdb4	0.015197206
90	0xbce491b9	-0.027901517
91	0x3cf2773c	0.029597871
92	0x3be0f704	0.006865384
93	0x3d0c816e	0.03430312
94	0x3d33e868	0.04392281
95	0x3abd4fbd	0.001444332
96	0x3bd40daa	0.0064713554
97	0x3b7db222	0.0038710912
98	0xbc1103a7	-0.008850968
99	0xbc6a637b	-0.014305945
100	0xba5e7910	-0.00084866676
101	0x3d41758b	0.04723124
102	0x3be22c26	0.0069022356
103	0xbdb4cc13	-0.088279866
104	0xb915c809	-0.00014284266
105	0xbb247d6e	-0.0025099176
106	0x3ca644c1	0.020296456
107	0x3d58ba94	0.05291231
108	0x3d6d6962	0.05796183
109	0x3c251ab4	0.010077167
110	0x3ca4670f	0.020068673
111	0x3b4c403f	0.0031166223
112	0x3cb516ec	0.022105657
113	0xbbb00efa	-0.005372879
114	0xbc31eb24	-0.010859285
115	0x3d167894	0.036736086
116	0x3c5e9d16	0.013587257
117	0x3cc4376a	0.023952205
118	0x3d0c6f36	0.034285747
119	0x3d07df4c	0.033171937
120	0xbcea79b2	-0.028622482
121	0x3c03b053	0.008037644
122	0xbd81e2f9	-0.0634212
123	0x3c1f640e	0.009728445
124	0xbbb42699	-0.0054977653
125	0xbb7615c6	-0.00375496
126	0xbccf5278	-0.025307879
127	0x3d5a1944	0.05324675
128	0x3d55c8f3	0.052193593
129	0x3dc8a814	0.09797683
130	0x3e0d8750	0.13821149
131	0x3d822473	0.063546084
132	0x3ca3eefc	0.020011418
133	0x3d085e4b	0.03329305
134	0x3ca145c3	0.019686585
135	0x3d8710e7	0.06595021
136	0x3de28a18	0.110614955
137	0xbaaa9174	-0.0013013319
138	0x3c0b2b83	0.008494261
139	0xbcd8ac88	-0.026449457
140	0x3cdc5256	0.02689473
141	0x3c35d2d3	0.011097628
142	0x3ce8842f	0.028383343
143	0x3c925514	0.017862834
144	0x3c5c77da	0.013456309
145	0xbd3fa8bd	-0.04679178
146	0xbd51d0ed	-0.051224638
147	0xbd87e892	-0.06636156
148	0xbdaeb975	-0.08531467
149	0xbe022792	-0.12710407
150	0xbddcb255	-0.10776202
151	0xbd448f07	-0.047987964
152	0xbc9e430f	-0.019319085
153	0x3d54c6f3	0.051947545
154	0x3d1637de	0.036674373
155	0xbb8d2062	-0.004306839
156	0x3bdc2c57	0.006719153
157	0x3dce9037	0.100861005
158	0x3db0bccd	0.08629761
159	0x3e0d82eb	0.13819472
160	0x3e112aec	0.1417653
161	0x3dc3faaa	0.09569295
162	0x3a143440	0.0005653538
163	0xbbbb37d0	-0.0057134405
164	0x3c561180	0.013065696
165	0x3c090cb4	0.008364845
166	0xbcb92fd0	-0.022605807
167	0x3aa67481	0.0012699516
168	0xbbbd7bd0	-0.005782582
169	0x3c3d278a	0.011545071
170	0x3ca4e9f1	0.020131083
171	0xbc75fe05	-0.015014176
172	0xbc78cd3d	-0.015185651
173	0xbd4db083	-0.050217163
174	0xbd55b9a0	-0.05217898
175	0xbe116a6d	-0.14200754
176	0xbdf3c12a	-0.119020775
177	0xbddac3ad	-0.106818534
178	0xbcdb079c	-0.026737027
179	0x3cf9747e	0.030451056
180	0x3d8dbba6	0.06920557
181	0x3d972eb9	0.073819585
182	0x3d723fde	0.05914294
183	0x3e389a5b	0.18027632
184	0x3e2c33a2	0.16816571
185	0x3e051782	0.12997249
186	0x3e54948b	0.2075979
187	0x3e1ea1e3	0.15491442
188	0x3df76db6	0.120814726
189	0x3d452be0	0.048137546
190	0xbd5f8e4e	-0.05457907
191	0xbcbeb237	-0.023278339
192	0xbd1bf9c6	-0.03808
193	0x3cc5cc90	0.024145395
194	0x3c4c3248	0.01246316
195	0x3cb811c3	0.022469407
196	0xbcd6f25e	-0.026238617
197	0x3d12f393	0.03587682
198	0x3b991be3	0.004672514
199	0xbce3d50e	-0.027811553
200	0xbc9270f9	-0.017876135
201	0xbd06906a	-0.032852568
202	0xbd2ecff0	-0.042678773
203	0xbdd3a010	-0.10333264
204	0xbc71eb09	-0.014765509
205	0xbc270ebb	-0.010196383
206	0xbc99130c	-0.01868584
207	0xbc40362b	-0.011731665
208	0x3d11ed5d	0.035626758
209	0x3dbab9fb	0.09117504
210	0x3dce7373	0.10080614
211	0x3e4f52cb	0.20246427
212	0x3e316b1c	0.17326015
213	0x3de9465c	0.11390373
214	0x3df8882f	0.1213535
215	0x3ccdfc21	0.025144638
216	0x3bf69275	0.0075247833
217	0x3d1ab824	0.037773266
218	0xbd77ef04	-0.060530677
219	0xbdf96b9d	-0.12178729
220	0xbd609ae2	-0.054835208
221	0x3c267aa5	0.010161077
222	0x3bc08c01	0.0058760648
223	0x3cd9f3a1	0.02660543
224	0x3ceb93bb	0.028756967
225	0x3cd200a2	0.025635067
226	0x3cf62f01	0.03005171
227	0x3c59016b	0.013244967
228	0x3ca176ac	0.019709907
229	0xbd43b1c2	-0.047776945
230	0xbb84c1ac	-0.004051408
231	0xbd94dce7	-0.07268696
232	0xbc72196a	-0.014776567
233	0x3a200b1c	0.0006105171
234	0xbc3d401f	-0.011550932
235	0x3c2fb23b	0.010723646
236	0x3afa54b7	0.0019098733
237	0x3d23abcf	0.03995877
238	0x3d2252a9	0.039629612
239	0x3d0fda5d	0.035120357
240	0x3ae9e177	0.0017843683
241	0xbd734949	-0.059396062
242	0xbcece554	-0.028917946
243	0xba0ae54c	-0.000529845
244	0xbca713be	-0.020395156
245	0x3d0de0b1	0.03463811
246	0x3ccca76e	0.02498218
247	0xbd3121b2	-0.043245025
248	0xbcf895cf	-0.030344872
249	0xbc82bf8e	-0.015960481
250	0x3ba180c9	0.0049286825
251	0xbc6a315f	-0.014293998
252	0xbb41b424	-0.0029556835
253	0x3d07cd1a	0.033154584
254	0xbc5e502a	-0.013568917
255	0x3caf8afb	0.021428576

fc1.bias f4 [100]
0	0xbcab8898	-0.020939156
1	0xba8a693a	-0.0010559924
2	0x3c960304	0.018311985
3	0xbb933c3e	-0.0044932654
4	0x3cc2cb0a	0.023778457
5	0xbd07cf38	-0.033156604
6	0xbcd8aa46	-0.02644838
7	0x3af27ae8	0.0018499764
8	0x3c7863fc	0.015160557
9	0xbce90b90	-0.028447896
10	0x3cab061c	0.020876937
11	0xbc7b1f1e	-0.015327243
12	0xbd1646f8	-0.036688775
13	0xbd2e2259	-0.042513225
14	0x3cb92343	0.022599822
15	0xbb5f235d	-0.0034048178
16	0xbcbb4626	-0.022860598
17	0x3c2e76eb	0.010648469
18	0xbd0f530f	-0.03499132
19	0x3d181853	0.037132572
20	0xbcf88d20	-0.030340731
21	0xbb87d74b	-0.004145538
22	0xbc33ff83	-0.010986212
23	0x3c6b01de	0.014343707
24	0xbcfc0984	-0.030766256
25	0x3c69f00b	0.014278422
26	0x3cb723fb	0.022356024
27	0xbc3ec75e	-0.0116442125
28	0xbc85b268	-0.016320422
29	0xbcff1e29	-0.031142311
30	0x39ae0663	0.00033192625
31	0x3c893c91	0.016752513
32	0xbcbbfc26	-0.022947382
33	0xbcd26c14	-0.025686301
34	0x3c4db845	0.01255614
35	0xbb844483	-0.0040364875
36	0xbd14668c	-0.03623061
37	0xbd3fecce	-0.046856694
38	0xbbccbf64	-0.0062484015
39	0xbd76758e	-0.060170703
40	0xbd0bf690	-0.034170687
41	0xbbac5f40	-0.005260378
42	0xbd2f5c48	-0.042812616
43	0xbd041428	-0.032245785
44	0x3c709cea	0.014685849
45	0xbc68aca3	-0.014201316
46	0xbc737a38	-0.014860682
47	0x3ce05f0b	0.02738907
48	0xbd4efc86	-0.050533794
49	0xbcb96d39	-0.02263509
50	0xbc9f55b7	-0.019450052
51	0x3be2b774	0.006918842
52	0x3d111b12	0.035426207
53	0xbc8a951c	-0.016916804
54	0x3ccbebac	0.02489265
55	0xbd97acc1	-0.07405997
56	0xb96ed2ba	-0.0002277595
57	0x3d728d3b	0.05921672
58	0x3c6cacf3	0.014445531
59	0x3b1623ea	0.002290959
60	0x3cdf4235	0.02725325
61	0xbc5b7689	-0.01339496
62	0xbd082c1a	-0.033245184
63	0x3b3fa14d	0.002924043
64	0xbb0054f7	-0.0019581893
65	0xbd118197	-0.035523977
66	0x3d1d5a95	0.038416464
67	0x3d12ec28	0.035869747
68	0xbc94d829	-0.01816948
69	0x3c0641e7	0.008194423
70	0xbcb7fbfb	-0.02245902
71	0x3c1041a4	0.008804712
72	0xb8e04b52	-0.00010695182
73	0x3c73ddfa	0.014884466
74	0xbb8ea5b8	-0.0043532513
75	0x3ccf47df	0.025302825
76	0x3c7c8bcd	0.0154141905
77	0x3bfa4fcf	0.0076389085
78	0xbd07540b	-0.033039134
79	0xbbf53bfe	-0.0074839583
80	0xbc88d8f4	-0.016705014
81	0xbc206b1b	-0.009791161
82	0xbc8768e1	-0.016529502
83	0x3c18f9b1	0.009336875
84	0x3c6de795	0.0145205455
85	0xbcfb3534	-0.030665018
86	0x3c849bbe	0.016187545
87	0x3d1c1b77	0.03811213
88	0xbc4e018a	-0.012573609
89	0xbc1839d1	-0.009291128
90	0xbd6c20eb	-0.05764858
91	0xbc54f3f7	-0.012997619
92	0xba8e0e2e	-0.0010837966
93	0x3d233261	0.039842967
94	0xbcf9595f	-0.030438123
95	0x3c877997	0.01653747
96	0xbc1171a6	-0.008877194
97	0xbd1845ae	-0.037175827
98	0xbc40c617	-0.011765978
99	0x3b9e9142	0.0048390934

fc2.weight f4 [10, 100]
0	0xbd1e5ad2	-0.03866083
1	0x3c0f35d4	0.008740861
2	0x3c86749b	0.016413024
3	0x3dd8ee97	0.105923824
4	0xbc8c5f55	-0.017135302
5	0xbe364339	-0.17799081
6	0x3e0208ea	0.12698713
7	0xbcaf7603	-0.021418577
8	0x3e79703e	0.24359223
9	0x3e121baa	0.14268366
10	0xbe89c394	-0.26907027
11	0x3d88d3bf	0.06681012
12	0xbbbbb124	-0.005727904
13	0xbdd63d74	-0.1046094
14	0xbe224269	-0.15845646
15	0xbe397fdc	-0.1811518
16	0xbddec6b4	-0.10877743
17	0xbafb9475	-0.0019194024
18	0x3d383aeb	0.044978064
19	0x3d472724	0.04862131
20	0x3cc279ec	0.023739778
21	0xbd019221	-0.0316335
22	0x3e22cbfe	0.1589813
23	0xbd589fb1	-0.05288667
24	0xbb008f24	-0.0019616568
25	0x3d809ad4	0.06279531
26	0xbddf0130	-0.108888984
27	0xbe712f8a	-0.23553291
28	0x3daf0520	0.085458994
29	0xbe2183c8	-0.15772927
30	0x3dbd8304	0.09253505
31	0xbd9c30c8	-0.07626492
32	0x3c91ad63	0.017782873
33	0xbd59aab4	-0.05314131
34	0xbe4804d3	-0.1953309
35	0xbd82b285	-0.06381706
36	0xbebcbd08	-0.3686297
37	0xbe6bb73d	-0.23019119
38	0xbe754511	-0.23952128
39	0xbcd69a63	-0.026196664
40	0xbd369c18	-0.044582456
41	0xbe0e2ec1	-0.13885023
42	0xbe14b840	-0.14523411
43	0xbe1c7895	-0.15280373
44	0x3d164095	0.036682684
45	0x3d8a8d4f	0.06765234
46	0x3db00f68	0.085966885
47	0x3d945522	0.072428
48	0x3e316cff	0.17326735
49	0x3db4d7f8	0.08830255
50	0xbd977e7d	-0.073971726
51	0x3d592a3b	0.05301879
52	0xbe508447	-0.2036296
53	0x3c60cd95	0.01372089
54	0x3ce12d72	0.02748749
55	0x3e6ef507	0.23335658
56	0x3da9ade9	0.08285124
57	0x3ca15498	0.019693658
58	0xbe03f76c	-0.12887353
59	0x3bea368f	0.007147617
60	0x3dfbe6e5	0.12299899
61	0x3e15cb83	0.14628415
62	0x3dd70af0	0.10500133
63	0xbd79d5a9	-0.060994778
64	0x3dd91956	0.106005356
65	0x3cddbf4b	0.027068755
66	0x3c4a4b3e	0.012347041
67	0xbe00ca71	-0.12577225
68	0x3dde39ba	0.10850854
69	0xbcf342b9	-0.029694902
70	0x3dbcbafb	0.09215351
71	0xbe4f8143	-0.20264153
72	0x3d1eb3c7	0.038745668
73	0xbd9efcd3	-0.07763066
74	0xbd7417df	-0.059593078
75	0xbe799c59	-0.24376048
76	0xbd9e3b60	-0.07726169
77	0x3d8f333f	0.06992196
78	0x3df63c3a	0.12023206
79	0xbcdcef15	-0.026969472
80	0x3dd685d7	0.10474747
81	0x3dd77248	0.10519844
82	0xbd352f74	-0.044234708
83	0xbe2553c6	-0.16145238
84	0xbd879f6e	-0.06622206
85	0xbddd8dec	-0.10818085
86	0x3d8253ae	0.06363617
87	0x3e62145c	0.22078079
88	0xbeae2563	-0.340129
89	0x3d8eee15	0.06979004
90	0x3d81e6bb	0.063428365
91	0x3e2cdeac	0.16881818
92	0xbe958789	-0.29204968
93	0xbb98e0fa	-0.004665491
94	0xbe479045	-0.19488628
95	0xbeb08744	-0.344782
96	0xbe4577a9	-0.19283928
97	0xbdc1b70c	-0.094587415
98	0x3bfda30a	0.007740383
99	0x3d4b41cc	0.049623296
100	0xbe3964b2	-0.18104818
101	0xbe814c70	-0.2525363
102	0xbc9cd171	-0.019142838
103	0x3eac6873	0.33673438
104	0x3dbb8ead	0.091580726
105	0x3e24e90f	0.1610453
106	0xbe23f7fe	-0.1601257
107	0x3d6ee4ec	0.058323786
108	0xbd8cbb91	-0.06871713
109	0x3e20866a	0.15676275
110	0xb8ae7e08	-8.320442e-05
111	0xbe5737bc	-0.21017355
112	0xbdcf6406	-0.101265
113	0x3b684572	0.0035441783
114	0x3da13cea	0.078729466
115	0x3c2b981b	0.0104732765
116	0xbde3c59e	-0.11121677
117	0xbba19e59	-0.0049322066
118	0xbe87196d	-0.26386586
119	0xbeac1078	-0.33606315
120	0xbd946a6a	-0.07246859
121	0xbde7d21b	-0.11319371
122	0xbe41c5e1	-0.18923141
123	0xbe44a3ce	-0.19203112
124	0x3dcff2fb	0.10153767
125	0xbd0b4082	-0.033997066
126	0x3e0ad655	0.13558324
127	0x3dff54a7	0.12467318
128	0xbcd35c6b	-0.025800904
129	0x3d9a49cf	0.07533609
130	0xbd28617a	-0.041108586
131	0x3de527de	0.11189245
132	0x3c9eb6f1	0.019374343
133	0xbd29d9a6	-0.04146733
134	0xbe430b77	-0.19047342
135	0xbd6ec9a5	-0.058297772
136	0x3dbbeb83	0.0917578
137	0x3da689d3	0.08131757
138	0x3dd79c84	0.105279
139	0x3b7d429f	0.0038644446
140	0xbe009e30	-0.12560344
141	0x3e715f05	0.23571403
142	0x3d0d3d78	0.03448245
143	0xbe13ee65	-0.14446409
144	0xbc28b0be	-0.010296045
145	0xbd430e50	-0.04762107
146	0xbd3c4cb3	-0.045971584
147	0xbe2145a9	-0.1574923
148	0xbe99645b	-0.29959378
149	0x3e9a1a0a	0.3009799
150	0xbcb6b9c2	-0.022305373
151	0x3c25dd22	0.010123523
152	0x3d3f4ca1	0.04670394
153	0x3d92a744	0.0716081
154	0xbe5d7ec4	-0.21630388
155	0x3e0beaaa	0.13663736
156	0xbdedd700	-0.116132736
157	0xbddc118d	-0.10745535
158	0xbcd9c0f8	-0.026581272
159	0x3b238dfb	0.0024956453
160	0xbe13924f	-0.14411281
161	0xbcb71928	-0.022350863
162	0xbe1dfc44	-0.15428263
163	0xbd16adde	-0.036786906
164	0x3e0d2ff5	0.13787825
165	0x3e9eb6c7	0.30998823
166	0xbd4c636c	-0.049899504
167	0xbe628274	-0.22120076
168	0xbe777fbb	-0.24169819
169	0x3e2bfacb	0.16794889
170	0xbe166fd4	-0.14691097
171	0x3d96b3e2	0.07358529
172	0xbdb8e5bb	-0.090281926
173	0xbd5c85f9	-0.053838704
174	0xbd0014cf	-0.031269845
175	0xbcb57152	-0.022148762
176	0xbbbb7571	-0.005720787
177	0x3df05eae	0.11736809
178	0x3e355843	0.1770945
179	0xbc459254	-0.012058813
180	0xbda85f0c	-0.08221254
181	0x3e22655d	0.1585898
182	0x3de2e718	0.11079234
183	0x3cc93ee4	0.024566121
184	0xbd8a3b7c	-0.06749627
185	0xbd495dca	-0.04916171
186	0xbe237e36	-0.15966114
187	0xbe8ddea5	-0.27708927
188	0x3e163f8a	0.14672676
189	0xbdfb3b2a	-0.12267144
190	0xbe61f3cd	-0.22065659
191	0xbd8b179e	-0.06791614
192	0xbe804d70	-0.2505908
193	0xbe47e8fa	-0.19522467
194	0x3e0fc20c	0.14038867
195	0x3cf21f79	0.029556023
196	0x3d6a9553	0.057271313
197	0x3e99f139	0.3006685
198	0xbd2c0923	-0.0420009
199	0xbe68ab10	-0.22721505
200	0x3d99cb23	0.075094484
201	0xbe02cd88	-0.12773716
202	0xbe231afd	-0.15928264
203	0xbcf50fcc	-0.02991476
204	0xbe910fa8	-0.28332257
205	0x3d9c90f5	0.07644836
206	0x3dde3cf5	0.108514704
207	0x3e123380	0.14277458
208	0x3e27453d	0.16335006
209	0xbd281b67	-0.041041758
210	0xbe44c95d	-0.19217439
211	0x3d8742dc	0.06604549
212	0xbf0d7607	-0.5525822
213	0x3cef5bf9	0.02921866
214	0xbc967ee7	-0.018371059
215	0x3e7ed9fb	0.2488784
216	0x3dbd422e	0.092411384
217	0xbd17b985	-0.03704216
218	0xbc42d8a7	-0.011892474
219	0xbdcb30c0	-0.09921408
220	0xbe1b7c71	-0.1518419
221	0x3d0f0827	0.034919884
222	0x3df4422e	0.11926685
223	0x3ea8e751	0.3298898
224	0x3df95119	0.12173671
225	0x3e177441	0.14790441
226	0xbd2ef0e0	-0.042710185
227	0xbd343b22	-0.044001706
228	0xbc4c3e6a	-0.012466053
229	0xbdc7de00	-0.0975914
230	0xbe572148	-0.2100879
231	0x3e19ebb4	0.1503132
232	0xbb829964	-0.0039855707
233	0x3cac2876	0.021015387
234	0xbdb5b890	-0.08873093
235	0x3dbb3551	0.09141029
236	0x3cdf7c18	0.027280852
237	0xbd65175b	-0.055930477
238	0x3ca933d3	0.020654595
239	0xbe1f6ba7	-0.1556841
240	0xbb0e0dbf	-0.0021675674
241	0x3d9510ab	0.0727857
242	0xbe1a60b4	-0.15075952
243	0xbe81f735	-0.25383916
244	0xbb0292c8	-0.0019923914
245	0x3e1a8dd8	0.15093172
246	0x3db91900	0.090379715
247	0xbd1e9b72	-0.038722463
248	0x3df601b1	0.12012041
249	0xbe8def85	-0.277218
250	0xbd2b6c17	-0.04185113
251	0x3e01e13a	0.12683573
252	0x3dd062f7	0.10175126
253	0x3da908b1	0.08253611
254	0xbe14eaf5	-0.14542754
255	0xbde4a494	-0.11164203

fc2.bias f4 [10]
0	0xbe196f8c	-0.14983958
1	0x3d66e422	0.05636991
2	0xbded5698	-0.11588782
3	0x3cc2186d	0.023693288
4	0x3c811536	0.015757184
5	0x3d951345	0.07279066
6	0x3d3e90be	0.046524756
7	0x3d369ca2	0.04458297
8	0x3d0269d0	0.031839192
9	0x3d324ed9	0.043532226
